hw1/net/anbncn_srn3_10.pth (torch, 2574 bytes, 6 tensors)

H0 f4 [3]
1.3290979 -0.0016426042 -0.9708968
00000000: e11f aa3f a74c d7ba b18c 78bf

W f4 [3, 3]
-0.41459256 -1.4296945 -0.0022610303 -2.0481749 -0.13894193 0.05818965 0.7955584 -0.22062354
-2.3712673
00000000: 7a45 d4be 3b00 b7bf cb2d 14bb 4c15 03c0
00000010: cb46 0ebe 4558 6e3d b7a9 4b3f 23eb 61be
00000020: d8c2 17c0

U f4 [3, 3]
1.3892882 -0.5775176 0.038390953 -0.6842055 0.94671607 -0.56824327 -0.057718266 -0.10067646
1.342329
00000000: 32d4 b13f 32d8 13bf d53f 1d3d 1728 2fbf
00000010: fc5b 723f 6478 11bf fd69 6cbd 762f cebd
00000020: 70d1 ab3f

hid_bias f4 [3]
-0.13903894 -0.15551502 -0.32951406
00000000: 3960 0ebe 543f 1fbe 11b6 a8be

V f4 [3, 3]
3.6055536 -0.60768765 -3.0614145 -0.9720294 -2.4852624 3.0216792 -0.5878687 3.7940307
-3.9242518
00000000: 64c1 6640 6b91 1bbf 37ee 43c0 ebd6 78bf
00000010: 8a0e 1fc0 3163 4140 907e 16bf 66d1 7240
00000020: f126 7bc0

out_bias f4 [3]
-1.2292469 1.8113741 0.0687626
00000000: f657 9dbf 1bdb e73f 68d3 8c3d
