hw1/net/anbn_srn2_80.pth (torch, 2554 bytes, 6 tensors)

H0 f4 [2]
000000 d7 2a bb 3f 6f 9d 47 3f
       1.4622449 0.779746

W f4 [2, 2]
000000 86 b3 94 bf 4c 6c 85 bf 5a 78 16 40 26 84 96 3f
       -1.1617286 -1.0423675 2.3510957 1.1759079

U f4 [2, 2]
000000 64 96 25 3f af b1 57 c0 52 85 2f 3d 2e 36 6d 40
       0.646826 -3.37022 0.042851754 3.7064319

hid_bias f4 [2]
000000 85 f5 b2 3e b9 31 de 3d
       0.34952942 0.108493276

V f4 [2, 2]
000000 8f 83 0d 3f eb 49 0d bf 3f 1e 80 c0 c6 2f 80 40
       0.5527887 -0.55190915 -4.003692 4.0058317

out_bias f4 [2]
000000 87 3a 25 c0 50 57 25 40
       -2.5816972 2.5834541
