hw1/net/anbn_srn2_10.pth (torch, 2554 bytes, 6 tensors)

H0 f4 [2]
00000000: 1aa5 a13f 0e66 7dbe
1.262851 -0.24745962

W f4 [2, 2]
00000000: 5f94 69bf cf01 efbe eee5 933f 4191 043f
-0.9124202 -0.46681067 1.1554544 0.5178414

U f4 [2, 2]
00000000: d6a5 353f 590c 91bf 7ee4 143e 8057 df3f
0.7095617 -1.1331893 0.14540288 1.7448578

hid_bias f4 [2]
00000000: 3c8e 803e 059e 053b
0.25108516 0.0020388376

V f4 [2, 2]
00000000: 53ec db3c f494 d4bc 95d2 19c0 2cf6 1940
0.026846087 -0.025949933 -2.403478 2.4056501

out_bias f4 [2]
00000000: 2908 9cbf 9b42 9c3f
-1.218999 1.2207826
