hw1/net/anbn_srn2_90.pth (torch, 2554 bytes, 6 tensors)

H0 f4 [2]
000000 d0 2e c0 3f b8 52 56 3f
       1.5014286 0.8371997

W f4 [2, 2]
000000 0c ef 94 bf 06 67 87 bf be 28 1f 40 c5 58 9a 3f
       -1.1635451 -1.0578315 2.4868617 1.205834

U f4 [2, 2]
000000 49 17 1e 3f 07 b7 60 c0 04 9b 2a 3d 54 59 75 40
       0.6175428 -3.511171 0.04165174 3.8335772

hid_bias f4 [2]
000000 0e 7a b5 3e d4 d4 f9 3d
       0.35444683 0.12198797

V f4 [2, 2]
000000 35 eb 12 3f bf b1 12 bf ab fc 7f c0 d4 0f 80 40
       0.5739015 -0.5730247 -3.9997966 4.001932

out_bias f4 [2]
000000 9a c8 27 c0 56 e5 27 40
       -2.6216187 2.6233726
