hw1/net/anbn_srn2_0.pth (torch, 2544 bytes, 6 tensors)

H0 f4 [2]
0.00037584786 -0.0012532959
00000000: 720d c539 a245 a4ba

W f4 [2, 2]
-0.0021953648 -0.0014971066 0.000442862 -0.00062147423
00000000: 1ce0 0fbb 903a c4ba ee2f e839 6eea 22ba

U f4 [2, 2]
-0.0014702403 -0.0006528645 0.0010698999 0.0017040484
00000000: 14b5 c0ba ff24 2bba e23b 8c3a 605a df3a

hid_bias f4 [2]
-0.0030250165 -0.001243091
00000000: 5b3f 46bb 36ef a2ba

V f4 [2, 2]
-0.0017090084 0.0026073186 0.0007520522 0.0014273504
00000000: ce00 e0ba 8cdf 2a3b 5e25 453a ef15 bb3a

out_bias f4 [2]
0.0013422911 0.0006556886
00000000: d1ef af3a 84e2 2b3a
