hw1/net/anbncn_srn3_20.pth (torch, 2574 bytes, 6 tensors)

H0 f4 [3]
0	0x3fc85401	1.5650636
1	0xbdd85967	-0.10563927
2	0xbf890f30	-1.070776

W f4 [3, 3]
0	0xbf01eeb8	-0.5075488
1	0xbfcc460a	-1.5958874
2	0xbd1130f7	-0.035447087
3	0xc00723c0	-2.111557
4	0xbe1dd5f1	-0.15413643
5	0x3da503d0	0.08057368
6	0x3f50ddf3	0.8158867
7	0xbe60a53f	-0.21938036
8	0xc0276e11	-2.616093

U f4 [3, 3]
0	0x3faf47c1	1.3693773
1	0xbf13d25b	-0.5774285
2	0x3d64aff2	0.055831857
3	0xbf44a951	-0.76820856
4	0x3f66d6d9	0.9017158
5	0xbf160766	-0.5860504
6	0xbd2aaf56	-0.04167112
7	0xbdc1ab5b	-0.094565116
8	0x3faa921d	1.332584

hid_bias f4 [3]
0	0xbe11a6cf	-0.14223789
1	0xbe294556	-0.16530356
2	0xbeafb77e	-0.3431968

V f4 [3, 3]
0	0x408bc2f6	4.367549
1	0xbf108b61	-0.56462675
2	0xc094527a	-4.635068
3	0xbf6f0dc1	-0.9338036
4	0xc0333376	-2.800016
5	0x407b5bf9	3.9274886
6	0xbe02c33f	-0.12769793
7	0x409a94f5	4.830683
8	0xc0d0d80d	-6.5263734

out_bias f4 [3]
0	0xbf9ad09b	-1.2094911
1	0x401b7090	2.4287453
2	0xbf75d899	-0.96033627
