hw1/net/anbn_srn2_30.pth (torch, 2554 bytes, 6 tensors)

H0 f4 [2]
1.224012 0.4396292
00000000: 6dac 9c3f 1417 e13e

W f4 [2, 2]
-1.1582958 -0.83504236 1.6910655 0.85812694
00000000: 0943 94bf 56c5 55bf d674 d83f 35ae 5b3f

U f4 [2, 2]
0.839606 -2.1888506 0.10224402 2.7432978
00000000: 6bf0 563f 2116 0cc0 5065 d13d 3192 2f40

hid_bias f4 [2]
0.25597185 0.012629019
00000000: be0e 833e f2e9 4e3c

V f4 [2, 2]
0.4625064 -0.4616147 -3.633048 3.6352088
00000000: a4cd ec3e c358 ecbe dc83 68c0 43a7 6840

out_bias f4 [2]
-2.2645044 2.2662787
00000000: a4ed 10c0 b60a 1140
