hw1/net/anbn_srn2_70.pth (torch, 2554 bytes, 6 tensors)

H0 f4 [2]
000000 f4 08 b4 3f fe ce 3e 3f
       1.4065232 0.74534595

W f4 [2, 2]
000000 00 7b 94 bf f7 ae 82 bf c5 49 0d 40 2f 0e 91 3f
       -1.1600037 -1.0209645 2.2076275 1.1332453

U f4 [2, 2]
000000 e6 55 2b 3f 7b f9 4c c0 44 b2 64 3d de 58 64 40
       0.66927946 -3.202727 0.05583407 3.567924

hid_bias f4 [2]
000000 5f df ae 3e 04 10 b9 3d
       0.34154794 0.09036258

V f4 [2, 2]
000000 6d 22 0b 3f a3 e8 0a bf 1b 71 7d c0 3b 94 7d 40
       0.54349405 -0.54261225 -3.9600284 3.9621723

out_bias f4 [2]
000000 a8 35 25 c0 7c 52 25 40
       -2.5814 2.5831594
