hw1/net/anbn_srn2_60.pth (torch, 2554 bytes, 6 tensors)

H0 f4 [2]
000000 fe 54 b1 3f 26 9e 25 3f
       1.3854063 0.6469444

W f4 [2, 2]
000000 68 ca 94 bf 8f be 7d bf 8c 64 05 40 96 c1 8a 3f
       -1.162427 -0.99118894 2.084262 1.0840328

U f4 [2, 2]
000000 c0 06 32 3f 7d 79 40 c0 a9 77 7b 3d c3 fd 59 40
       0.6954155 -3.007415 0.061393414 3.4061134

hid_bias f4 [2]
000000 c3 e3 a7 3e 86 c4 95 3d
       0.32790956 0.073128745

V f4 [2, 2]
000000 2c 87 03 3f 3a 4d 03 bf 6a 50 7b c0 a2 73 7b 40
       0.5137813 -0.51289713 -3.926783 3.9289327

out_bias f4 [2]
000000 53 f0 22 c0 36 0d 23 40
       -2.5459182 2.5476813
