hw1/net/anbn_srn2_100.pth (torch, 2564 bytes, 6 tensors)

H0 f4 [2]
1.5428852 0.8790366
00000000: 437d c53f 8b08 613f

W f4 [2, 2]
-1.1639138 -1.0666174 2.584422 1.2286532
00000000: 21fb 94bf eb86 88bf 2c67 2540 8244 9d3f

U f4 [2, 2]
0.60981625 -3.6511 0.03600137 3.9405406
00000000: eb1c 1c3f 9fab 69c0 2c76 133d d131 7c40

hid_bias f4 [2]
0.3580026 0.13425863
00000000: 1e4c b73e 187b 093e

V f4 [2, 2]
0.5777688 -0.57689375 -4.0336957 4.035822
00000000: a8e8 133f 4faf 13bf 0914 81c0 7425 8140

out_bias f4 [2]
-2.6075315 2.6092808
00000000: cce1 26c0 75fe 2640
