hw1/net/anbncn_srn3_0.pth (torch, 2564 bytes, 6 tensors)

H0 f4 [3]
0	0xb9b8d444	-0.00035253365
1	0x3a580763	0.0008240847
2	0xb888d260	-6.524171e-05

W f4 [3, 3]
0	0x3b425737	0.0029654035
1	0xba9dd3e1	-0.0012041294
2	0xb8dbfb40	-0.00010489533
3	0xbb080770	-0.0020756386
4	0xba817cf9	-0.0009879164
5	0x3a7662d5	0.00093988824
6	0x3a99fa40	0.0011747554
7	0x3abeff0e	0.0014571862
8	0xbacd8e32	-0.0015682636

U f4 [3, 3]
0	0x39c6b2d0	0.0003789873
1	0x39b67e58	0.0003480788
2	0xba8678c4	-0.001025938
3	0xbab557a6	-0.0013835325
4	0x3b30a54b	0.002695399
5	0xba8470a4	-0.001010437
6	0x3a257b87	0.00063126575
7	0x3adbfcb8	0.001678369
8	0xba84e785	-0.0010139799

hid_bias f4 [3]
0	0x3b2dcd2c	0.0026519997
1	0x39981306	0.00029005873
2	0xb8d470e8	-0.00010129978

V f4 [3, 3]
0	0x3b027770	0.0019907616
1	0xba40742a	-0.00073415285
2	0x3a0a4d00	0.0005275756
3	0xbaba7094	-0.0014224225
4	0xbabfce26	-0.001463358
5	0x3b4aa77e	0.0030922587
6	0xba583028	-0.0008246922
7	0x3aae671d	0.0013305877
8	0x3a61550c	0.0008595742

out_bias f4 [3]
0	0x3a80b3f3	0.0009819254
1	0x38f14280	0.00011504162
2	0xb93ff9dc	-0.0001830826
