hw1/net/anbn_srn2_50.pth (torch, 2554 bytes, 6 tensors)

H0 f4 [2]
0	0x3fa5f5b5	1.2965609
1	0x3f1e048b	0.6172568

W f4 [2, 2]
0	0xbf9494c1	-1.1607896
1	0xbf75db4c	-0.96037745
2	0x3ff89dd5	1.9423167
3	0x3f8363d8	1.0264845

U f4 [2, 2]
0	0x3f3dffad	0.74218255
1	0xc0314957	-2.7701013
2	0x3d95a6a3	0.07307174
3	0x404e65aa	3.224955

hid_bias f4 [2]
0	0x3e9f1c44	0.31076252
1	0x3d54b9fa	0.051935174

V f4 [2, 2]
0	0x3f069d9e	0.52584255
1	0xbf066386	-0.5249561
2	0xc0780c83	-3.8757637
3	0x40782fc9	3.8779166

out_bias f4 [2]
0	0xc01fd35d	-2.4972756
1	0x401ff04e	2.499042
