hw1/net/anbn_srn2_20.pth (torch, 2554 bytes, 6 tensors)

H0 f4 [2]
1.1828753 0.3440259
00000000: 7568 973f 2a24 b03e

W f4 [2, 2]
-1.1190884 -0.7245019 1.527918 0.74145186
00000000: 4a3e 8fbf f578 39bf d192 c33f cacf 3d3f

U f4 [2, 2]
0.86336875 -1.7959284 0.12138986 2.4043274
00000000: bc05 5d3f fbe0 e5bf 3f9b f83d 80e0 1940

hid_bias f4 [2]
0.2270515 0.0004142498
00000000: 3080 683e ab2f d939

V f4 [2, 2]
0.3746694 -0.37377554 -3.300984 3.303152
00000000: abd4 bf3e 825f bfbe 5243 53c0 d866 5340

out_bias f4 [2]
-1.9830152 1.9847947
00000000: 71d3 fdbf c10d fe3f
