hw1/net/anbn_srn2_40.pth (torch, 2554 bytes, 6 tensors)

H0 f4 [2]
000000 a5 03 a1 3f 80 97 0c 3f
       1.2579237 0.5491867

W f4 [2, 2]
000000 ce b7 94 bf ac 89 68 bf b3 d2 e8 3f 05 7c 73 3f
       -1.1618593 -0.9083507 1.81893 0.95111114

U f4 [2, 2]
000000 71 c9 48 3f 52 c2 20 c0 ee 4e bb 3d a9 a9 40 40
       0.78432375 -2.5118604 0.09145914 3.0103552

hid_bias f4 [2]
000000 e4 be 92 3e 6b 72 01 3d
       0.28661263 0.031603258

V f4 [2, 2]
000000 fd c5 fc 3e 5f 51 fc be 80 00 72 c0 d3 23 72 40
       0.49369803 -0.4928083 -3.7812805 3.7834365

out_bias f4 [2]
000000 c5 91 1a c0 c1 ae 1a 40
       -2.415147 2.4169161
