hw1/net/reber_lstm4_30.pth (torch, 3147 bytes, 5 tensors)

W f4 [7, 16]
1.0131042 2.764596 0.6260968 -0.27184057 -1.668122 -2.130912 -2.0662878 -0.4071159
-0.5096456 2.8273392 -2.0010474 -0.70109576 0.7327452 2.0370684 -2.022652 1.463692
0.79463744 1.5192796 1.1661649 1.094413 -0.47904137 -2.3942273 1.7811414 0.259709
-0.24953651 -0.5411364 -0.01340518 2.0877357 1.0784106 0.120997116 1.6415212 0.8503078
-1.379912 1.9490262 1.3870637 1.1473211 -0.6334235 0.92792195 -1.2576274 -0.9739653
-0.16568013 -2.6406028 3.4095302 0.6377635 -4.7831554 2.010939 0.49248055 2.3218408
2.0854516 -2.2914665 -0.9801502 1.5212147 -1.6407223 1.8638871 -1.0706891 0.9011625
0.41287762 -0.6711612 -2.5504751 1.4794309 2.5742707 2.546802 -1.5708452 4.0367517
3.1967123 1.0973867 1.0819963 1.1820636 1.1425481 0.40478358 0.6237797 -0.28997323
0.615072 0.5093513 -1.7868713 0.8260535 2.4834526 -0.41119832 2.083955 1.4019264
-0.007294471 1.2725662 1.1847417 1.493926 -2.119089 0.29543793 -0.24508497 -1.8703506
-0.75903845 -1.3509176 -0.42816424 -3.0257277 -1.0066236 0.7677461 1.3634112 1.8192763
1.820307 2.0874884 0.95353276 1.2185949 -0.3538236 -2.8616676 3.3818119 1.6011944
1.820815 2.6768038 0.5054617 -2.952364 3.4035532 0.8129676 1.4043325 -0.67962074
00000000: 66ad 813f 24ef 3040 e147 203f b02e 8bbe
00000010: 0685 d5bf dd60 08c0 0f3e 04c0 7f71 d0be
00000020: 2278 02bf 20f3 3440 2911 00c0 037b 33bf
00000030: 3095 3b3f 545f 0240 2173 01c0 425a bb3f
00000040: 5c6d 4b3f c177 c23f e444 953f ba15 8c3f
00000050: e944 f5be 053b 19c0 71fc e33f 94f8 843e
00000060: 8086 7fbe ea87 0abf 66a1 5bbc 769d 0540
00000070: 5c09 8a3f 56cd f73d 5e1d d23f c6ad 593f
00000080: f5a0 b0bf b179 f93f 4e8b b13f 6bdb 923f
00000090: 0b28 22bf 4b8c 6d3f eff9 a0bf ca55 79bf
000000a0: 0da8 29be a3ff 28c0 be35 5a40 7844 233f
000000b0: 9c0f 99c0 39b3 0040 6926 fc3e 0a99 1440
000000c0: 0a78 0540 63a7 12c0 20eb 7abf 2ab7 c23f
000000d0: 3003 d2bf da93 ee3f 570c 89bf 96b2 663f
000000e0: b264 d33e 38d1 2bbf fc3a 23c0 fe5d bd3f
000000f0: dac0 2440 cefe 2240 7511 c9bf 122d 8140
00000100: ef96 4c40 2b77 8c3f db7e 8a3f dc4d 973f
00000110: 043f 923f cb3f cf3e 07b0 1f3f 5f77 94be
00000120: 5c75 1d3f d964 023f 33b8 e4bf 3e78 533f
00000130: e3f0 1e40 9688 d2be 855f 0540 5372 b33f
00000140: 7506 efbb 73e3 a23f 9ea5 973f f838 bf3f
00000150: 279f 07c0 a443 973e 8ef7 7abe a667 efbf
00000160: 5850 42bf deea acbf 5838 dbbe 86a5 41c0
00000170: 0bd9 80bf 028b 443f 4284 ae3f 0cde e83f
00000180: d2ff e83f 6999 0540 b91a 743f ebfa 9b3f
00000190: 5e28 b5be 9025 37c0 9b6f 5840 f0f3 cc3f
000001a0: 7710 e93f c150 2b40 f065 013f 88f3 3cc0
000001b0: d1d3 5940 a51e 503f 2bc1 b33f a0fb 2dbf

U f4 [4, 16]
1.6764022 2.3315358 4.199456 2.175841 0.53552485 -0.085011445 -0.3580265 -0.3683063
1.4243011 -0.2610959 1.014678 -0.7187909 -1.1859055 1.44589 6.1485243 2.6402466
-1.8271449 0.18777594 1.0506698 -0.8263418 -1.422177 -0.17265421 2.771287 0.65421176
-1.9297285 -0.8077352 -0.7391523 -0.13182448 -0.22000885 -1.9034641 2.2609985 0.66770506
-1.6808391 0.5231648 1.5849022 -0.18480971 -0.57656026 -1.0753288 1.1624147 2.888775
-0.19889383 0.30483472 0.61388 -0.5340025 -1.34944 1.5477945 0.3821597 -0.94977933
0.6287701 -1.0190314 -0.48520118 0.14651589 2.7438416 0.52272296 1.1729212 -1.1054401
2.5321229 1.5498927 -2.6448514 -1.2016406 0.4425162 -1.8837264 1.2244198 0.7783601
00000000: 5994 d63f e237 1540 f261 8640 fb40 0b40
00000010: 2818 093f 7b1a aebd 404f b7be a592 bcbe
00000020: 804f b63f 5dae 85be f8e0 813f ae02 38bf
00000030: c0cb 97bf ec12 b93f b6c0 c440 cdf9 2840
00000040: e2df e9bf 5648 403e 597c 863f 238b 53bf
00000050: e509 b6bf 44cc 30be c45c 3140 6c7a 273f
00000060: 5801 f7bf bcc7 4ebf 1639 3dbf fffc 06be
00000070: 004a 61be b6a4 f3bf 33b4 1040 b8ee 2a3f
00000080: bc25 d7bf 21ee 053f 13de ca3f c23e 3dbe
00000090: 7499 13bf 60a4 89bf 01ca 943f b1e1 3840
000000a0: d3aa 4bbe 4c13 9c3e 3d27 1d3f 63b4 08bf
000000b0: 73ba acbf 211e c63f 70aa c33e bd24 73bf
000000c0: 14f7 203f 9f6f 82bf 4a6c f8be 4308 163e
000000d0: 1a9b 2f40 2cd1 053f 4822 963f 107f 8dbf
000000e0: 4d0e 2240 e262 c63f 3f45 29c0 5ccf 99bf
000000f0: 7c91 e23e f21d f1bf cab9 9c3f 9c42 473f

hid_bias f4 [16]
1.3249868 1.8260633 1.7936335 2.5228934 0.09345995 -0.76937497 0.1715394 -0.13400795
0.74942183 0.2238675 0.008701371 0.3815501 1.6075232 2.1162655 0.23365286 1.4825377
00000000: 2b99 a93f 71bc e93f c895 e53f 1677 2140
00000010: ee67 bf3d c2f5 44bf 06a8 2f3e 6139 09be
00000020: 1cda 3f3f 863d 653e 3290 0e3c 895a c33e
00000030: 52c3 cd3f e570 0740 b242 6f3e ccc3 bd3f

V f4 [4, 7]
-13.0340805 1.243405 0.077265896 -0.29175156 0.69065225 1.1605278 -4.4961967 -0.46881545
3.6501806 -3.332552 -3.608555 2.4038463 -0.91198266 -4.929986 -8.17662 -0.5700601
3.647926 3.6402872 -0.2774888 -3.5103254 9.544817 0.9956663 1.0186262 2.9861615
2.748319 -3.7995756 0.033347894 -9.949992
00000000: 988b 50c1 e527 9f3f 953d 9e3d 7660 95be
00000010: 96ce 303f 2d8c 943f d8e0 8fc0 9408 f0be
00000020: 8f9c 6940 8848 55c0 91f2 66c0 9ed8 1940
00000030: b277 69bf 72c2 9dc0 6fd3 02c1 75ef 11bf
00000040: 9f77 6940 77fa 6840 0313 8ebe 2ca9 60c0
00000050: 92b7 1841 fde3 7e3f 5862 823f 451d 3f40
00000060: 75e4 2f40 3f2c 73c0 cd97 083d 2b33 1fc1

out_bias f4 [7]
-2.9114087 0.69501543 -0.2007784 -0.11079294 0.53056204 -0.75511736 -2.1902606
00000000: 8554 3ac0 88ec 313f da98 4dbe 69e7 e2bd
00000010: ead2 073f 5f4f 41bf 3b2d 0cc0
