hw1/net/reber_lstm4_0.pth (torch, 3138 bytes, 5 tensors)

W f4 [7, 16]
000000 72 57 58 3d 02 05 d5 be 09 15 e7 bd 67 dd f1 be
       0.05281777 -0.41605383 -0.11283309 -0.4723923
000010 7f bc 48 be d7 33 d1 3e c2 ec 53 3c af 9a 8c be
       -0.19603156 0.40859863 0.012934865 -0.27461764
000020 be 0c e2 bd 57 0a 5c be 2a 42 e1 3e e0 4e 28 3d
       -0.11037587 -0.2148832 0.43995792 0.041090846
000030 01 25 44 bd 68 0f 94 be bd b6 06 3d b2 a4 bb 3e
       -0.047886852 -0.28918004 0.032889117 0.3664909
000040 d0 41 b8 3e 1c a5 9d 3e f6 49 8c 3e b0 59 67 3e
       0.3598771 0.3079003 0.27400178 0.22592807
000050 aa 20 01 be 5a 1a 91 be 2c ff cf be 18 54 2e 3e
       -0.12610117 -0.28340417 -0.40624368 0.17024267
000060 48 6d 7f be d4 25 a8 be ee f1 d6 be 90 85 e1 3e
       -0.24944031 -0.3284136 -0.41981453 0.44047213
000070 78 93 cf be a4 b0 86 3e 68 9c 8a be 06 2e 60 bc
       -0.40542197 0.2630664 -0.27072453 -0.013682848
000080 30 c0 1e 3d fb 27 d4 bd 3b 0d 4c 3e ea 04 df 3e
       0.038757503 -0.10359188 0.19926922 0.43558437
000090 a8 16 92 3d 7d 45 c6 bd 8e 9d 44 bd d1 03 e3 3c
       0.071332276 -0.096812226 -0.04800182 0.02771178
0000a0 e3 cc 69 bd 6a 15 c5 be ce a1 7e bd 80 26 a1 b9
       -0.05708016 -0.384929 -0.062166028 -0.00030736998
0000b0 e8 6e a8 be f9 dc 8e 3e ec 34 96 be 7e fa 69 bd
       -0.32897115 0.27902964 -0.2933725 -0.057123654
0000c0 06 c6 e5 3e 57 05 94 be bc c8 11 3e 01 74 22 be
       0.44877642 -0.28910324 0.1423673 -0.15864564
0000d0 fb a8 45 3e 60 07 95 3e b2 44 f2 bd ac d6 e6 3e
       0.19302742 0.2910719 -0.11829509 0.45085657
0000e0 56 25 8b 3d 7d 9b cd bd fd 19 a8 be 96 2c e1 3e
       0.06794231 -0.10039423 -0.32832327 0.4397933
0000f0 b8 cf eb bd 3b 22 77 3e 20 7c 80 bd bb 19 04 3e
       -0.115142286 0.24134152 -0.06273675 0.1290044
000100 1f 6b bd 3e b8 92 bd 3e 3c af ad be 74 5e 08 be
       0.3699579 0.37026 -0.33922756 -0.13317281
000110 81 dc 8c be d2 f5 80 be 8e 60 f6 3e 00 6e d9 3c
       -0.2751198 -0.25187546 0.4812054 0.02654171
000120 bf 36 c3 bd cf ef 4a be 74 ce c0 be 86 b9 af 3e
       -0.09531926 -0.19818042 -0.3765751 0.3432123
000130 5a 19 6d 3e 8a 90 ea be aa 32 da be 29 b9 92 3e
       0.23154202 -0.458134 -0.4261678 0.2865689
000140 68 38 3f 3e 15 fb ed 3e a0 ec ee 3e b9 68 ab 3e
       0.18673861 0.46480623 0.46664906 0.33478335
000150 84 e7 a7 3d 84 26 8f 3d d4 ec e6 be a3 82 98 bd
       0.08198455 0.06989768 -0.4510256 -0.07446792
000160 73 e8 5d bd 16 5c c5 be e2 69 bd bd 08 e8 13 be
       -0.05417676 -0.38546818 -0.09248711 -0.14443982
000170 83 39 ee 3d 0a be fb be f8 8d e2 bd 25 5d fe 3e
       0.11632063 -0.49168426 -0.11062235 0.4968044
000180 0d ea 87 be b4 4b c6 3e fe 86 7d 3d 50 d1 16 3e
       -0.26545754 0.38729632 0.061896317 0.14728284
000190 60 eb bb be f7 53 f1 bd 68 1e ba 3d da 78 74 be
       -0.36703014 -0.11783593 0.09087831 -0.23874226
0001a0 44 fb b9 be cd ce 14 3e 98 fc c0 3e 9c 1b a1 be
       -0.36324513 0.14532013 0.37692714 -0.31466377
0001b0 62 2b ff 3e f8 10 e9 3e 6a 7b 95 3e 72 d7 b8 be
       0.49837786 0.4552076 0.2919572 -0.36101872

U f4 [4, 16]
000000 28 68 e7 3e 51 10 47 3e 4a 82 a7 be 88 d6 ce bd
       0.45196652 0.19439818 -0.3271659 -0.10099512
000010 f9 93 ec 3e 25 97 e0 3e 27 3e a1 be 5f e5 14 3e
       0.46206644 0.43865314 -0.3149273 0.14540623
000020 02 aa 6f bd 2c 49 e1 be fc 33 cf 3e a2 71 f4 be
       -0.05851174 -0.44001138 0.40469348 -0.47742945
000030 bf 08 f5 be 9d a1 92 be 41 2f 99 3d 0b 6e cc 3e
       -0.47858235 -0.28638926 0.07479716 0.39927706
000040 70 ea fa 3e 17 9d 10 be 33 9d c6 3e 03 70 00 3e
       0.49006987 -0.14122425 0.38791808 0.12542729
000050 a4 8d 85 3d 42 28 de 3e a7 d0 46 3e 6d b8 ce be
       0.065211564 0.4339009 0.19415532 -0.4037508
000060 d8 2c 32 3e 3d 94 4a be 1f 58 8a 3d ec dc fc 3e
       0.17399919 -0.19783111 0.06755089 0.493873
000070 76 bc f9 be af 43 d4 3e c5 be 72 be 11 b7 cc 3e
       -0.48776597 0.41457888 -0.23705585 0.3998342
000080 1e 8b de be ab 1c bb be 6b b9 64 be 73 b5 68 be
       -0.43465513 -0.3654531 -0.22336356 -0.22725467
000090 6d d1 cd be 1d 04 a7 3e d5 0f 12 3d 8b 0d a0 be
       -0.40198842 0.32620326 0.03565963 -0.31260332
0000a0 19 1b eb 3d 29 34 cf 3d bf 43 97 3d d6 1d c2 be
       0.11479778 0.10117371 0.073859684 -0.37913388
0000b0 5a 95 7e 3d a7 1a aa 3e ac 5c a4 be aa 43 52 be
       0.06215415 0.3322346 -0.32101953 -0.20533624
0000c0 ec 5f 56 bd 62 c8 c6 3e 4f 2b b7 bd 93 71 d8 3e
       -0.052337572 0.38824755 -0.08943807 0.4227415
0000d0 bd 9b 79 3e bb 4c eb be 86 21 dc 3e 66 c9 3e 3d
       0.24375816 -0.45956978 0.42994326 0.046578787
0000e0 11 05 6b 3d b0 77 ce 3e 12 a2 a9 be 36 6f 01 3c
       0.05737788 0.4032569 -0.33131462 0.00790005
0000f0 a6 50 80 3e 19 00 9d 3e 5f 4f 67 be 46 92 13 be
       0.2506153 0.30664137 -0.22588871 -0.14411268

hid_bias f4 [16]
000000 c5 30 50 be a2 10 28 3d 3e 8a 96 3e 3c 50 e4 3e
       -0.20331104 0.041031487 0.29402345 0.44592464
000010 ff 60 25 3e 8e bf 57 be e5 2c 99 bc f7 8b 49 3e
       0.16150282 -0.21069166 -0.018698165 0.19682299
000020 e2 57 aa 3e 44 29 dd 3e bc a2 bb 3e 8f b9 42 be
       0.33270174 0.43195546 0.36647594 -0.19016097
000030 24 5b de 3e 66 7b de be 98 43 9c 3e da 4d bc 3e
       0.4342891 -0.4345352 0.3052032 0.36778146

V f4 [4, 7]
000000 df e4 69 3e 94 25 aa 3e 9f ee 59 be 57 70 60 3e
       0.22841214 0.33231795 -0.21282433 0.21917854
000010 93 58 7e 3d 10 2f a9 be 2a cd e2 be 4b 62 70 3e
       0.06209619 -0.33043718 -0.44297153 0.23474996
000020 0a bc ef 3e 84 ed 96 be 78 68 8f 3e 94 0f ee 3e
       0.4682315 -0.29478085 0.2800939 0.4649626
000030 63 4b 4c bd e4 dd 41 be 82 43 93 3e 47 82 1e be
       -0.049876582 -0.18932301 0.28762442 -0.15479384
000040 0c 42 a3 be fe a2 fc 3d 2e bc fe bd 5e e0 8c 3e
       -0.31886327 0.12335776 -0.12438236 0.2751493
000050 a8 12 a1 3e 44 4f 9d be b7 9c 2b 3e a8 f6 dc 3e
       0.31459546 -0.30724537 0.16759 0.43156934
000060 44 a6 d2 3e 45 15 49 be 38 a7 9a be 76 04 d9 3d
       0.41142476 -0.1963702 -0.30205703 0.10596554

out_bias f4 [7]
000000 06 20 f4 3d e7 77 b1 3c d1 b2 74 be ea 68 a6 3e
       0.119201705 0.02166362 -0.23896338 0.32501918
000010 c3 d6 21 3d 93 26 24 3e f0 13 9d 3e
       0.039511453 0.1603034 0.30679274
