hw1/net/reber_lstm4_10.pth (torch, 3147 bytes, 5 tensors)

W f4 [7, 16]
0	0x3f8cab61	1.0989801
1	0x401e7c53	2.4763381
2	0x3efdfba8	0.4960606
3	0xbe22b7d4	-0.15890437
4	0xbfb1b0bb	-1.3882059
5	0xbfc4e404	-1.5382085
6	0xbfcce76e	-1.6008127
7	0xbe2fd331	-0.17170407
8	0xbed705e4	-0.41996682
9	0x40201d8c	2.5018034
10	0xc007b9ba	-2.1207108
11	0xbf23046b	-0.63678616
12	0x3f62d117	0.88600296
13	0x4027c743	2.621537
14	0xbf927a36	-1.1443546
15	0x3fc2f82a	1.5231984
16	0x3f597b5b	0.8495385
17	0x400602e6	2.093927
18	0x40001f52	2.0019116
19	0x3f7b3784	0.98131585
20	0xbe2b180e	-0.16708395
21	0xc018f828	-2.3901463
22	0x3fb6af97	1.4272336
23	0x3e6b8dea	0.23003355
24	0xbe02337e	-0.12714955
25	0xbf146000	-0.57958984
26	0xbe244536	-0.16042027
27	0x3fb11b60	1.3836479
28	0x3f9c8794	1.2228875
29	0x3fe0adaf	1.7553004
30	0x3fe943b3	1.8223785
31	0x3f692d20	0.9108448
32	0xbed732fa	-0.4203108
33	0x4005cda7	2.090677
34	0x3f524be2	0.8214704
35	0x3fd7098f	1.6799792
36	0xbf8ce113	-1.1006187
37	0x3fb91aff	1.4461364
38	0xbf8a518c	-1.0806136
39	0xbfaaa3e0	-1.3331261
40	0xbe925adb	-0.28584942
41	0xc0214dd6	-2.5203757
42	0x3fe893dc	1.8170123
43	0x3f0958ed	0.53651315
44	0xc07ccea5	-3.9501126
45	0x401f5041	2.4892733
46	0xbe3ceb63	-0.18449168
47	0x3fef76ec	1.8708167
48	0x3fb28143	1.3945698
49	0xc00bf8a8	-2.1870518
50	0xbf66c4e5	-0.9014419
51	0x3fe72444	1.8057942
52	0x3ed06fbd	0.4071025
53	0x3fc249d1	1.5178777
54	0xbfa9bf43	-1.3261493
55	0x3f154fed	0.5832508
56	0x3ebaa4a5	0.3645374
57	0xbf491779	-0.7855144
58	0xbfcf2439	-1.6182929
59	0x3fb3f235	1.4058291
60	0x3feaf63a	1.8356392
61	0x40194918	2.3950863
62	0xbf986be9	-1.1907932
63	0x403434b0	2.8157158
64	0x404cb747	3.1986864
65	0x3fa824a8	1.3136187
66	0x3fe5ec9e	1.7962835
67	0x3f6cbace	0.9247254
68	0x3f117eb1	0.5683394
69	0x3ce65151	0.028114947
70	0x3e8b9fd6	0.27270383
71	0xbf1be08e	-0.6088952
72	0x3f004f78	0.5012126
73	0x3ed7d966	0.4215805
74	0xbfa3d104	-1.2798162
75	0x3f374cec	0.7160175
76	0x400bfb5a	2.1872163
77	0x3dd45deb	0.10369476
78	0x3ff0414c	1.8769927
79	0x3f7fe661	0.99960905
80	0x3f34ec9d	0.70673543
81	0x3f88042f	1.0626277
82	0x3f6ef957	0.9334921
83	0x3feb1e7c	1.8368678
84	0xbfdc728e	-1.7222459
85	0x3df9f793	0.12205424
86	0xbeeaeee3	-0.4588538
87	0xbfdca579	-1.7237998
88	0xbf54ace6	-0.8307632
89	0xbf632ddf	-0.8874187
90	0xbec7192c	-0.38886392
91	0xc03e7311	-2.975773
92	0xbf86b34f	-1.0523471
93	0x3eec8026	0.4619152
94	0x3faf2fbc	1.3686442
95	0x40152735	2.330518
96	0x3fd93578	1.6969442
97	0x401e7e54	2.4764605
98	0x3fcfb285	1.6226355
99	0x3fce248b	1.6104902
100	0x3da203c0	0.079108715
101	0xc065fd05	-3.593568
102	0x4033d9e5	2.8101742
103	0x3ff7642d	1.9327446
104	0x3fb4a351	1.411234
105	0x402f6bdf	2.740959
106	0x3f66197d	0.8988264
107	0xc019fdf0	-2.406124
108	0x4069d75e	3.65377
109	0x3fef4267	1.8692139
110	0x3fc707b9	1.5549232
111	0xbf01ae4d	-0.50656587

U f4 [4, 16]
0	0x3fdb7259	1.7144271
1	0x3fc57a10	1.5427876
2	0x405490f8	3.3213482
3	0x4021f3d3	2.5305068
4	0x3f45c45a	0.77252734
5	0xbc9011a6	-0.01758654
6	0xbec6cb00	-0.38826752
7	0xbede7f92	-0.43456703
8	0x3f91d74e	1.1393831
9	0xbebac8f5	-0.36481443
10	0x3f617d9e	0.880823
11	0xbf337aec	-0.7010944
12	0xbf864106	-1.0488594
13	0x3fc43edb	1.5331682
14	0x407bca73	3.9342315
15	0x40185aa4	2.3805323
16	0xbfed27f1	-1.8527814
17	0x3e6b0a38	0.22953117
18	0x3fe739a6	1.8064468
19	0xbf50c725	-0.8155387
20	0xbfe71667	-1.8053712
21	0xbee3f42b	-0.44522223
22	0x40374b0c	2.8639555
23	0x3f68f04a	0.9099165
24	0xbfebbcf4	-1.8417039
25	0xbf7767ab	-0.9664256
26	0xbf1df963	-0.6170866
27	0xbe5dc734	-0.21658021
28	0xbde73da4	-0.11291054
29	0xbf98e19c	-1.194385
30	0x4003ea34	2.0611696
31	0x3f17e3c0	0.59331894
32	0xbfd612f3	-1.6724533
33	0x3fa05964	1.252728
34	0x3fd196a4	1.6374097
35	0xbde4ba0c	-0.11168298
36	0xbf68e964	-0.90981126
37	0xbf883ce8	-1.0643587
38	0x3f827fa5	1.0195204
39	0x3ffe1e5b	1.9853014
40	0x3d050405	0.032474536
41	0x3e78da8f	0.24302123
42	0x3f2d68d3	0.67738074
43	0xbf127525	-0.5721
44	0xbfa584a6	-1.2931106
45	0x3f571a53	0.8402454
46	0x3e190361	0.14942695
47	0xbf586fa8	-0.84545374
48	0x3f3c1bef	0.73480123
49	0xbf89a2a2	-1.0752757
50	0xbf943e53	-1.158152
51	0x3d046688	0.032324344
52	0x402e41e3	2.7227714
53	0x3f1b01a8	0.605494
54	0x3f7d0b99	0.9884582
55	0xbf7d6e0e	-0.98996055
56	0x4018fbae	2.3903613
57	0x3fc515a8	1.5397234
58	0xc00e95cc	-2.2278929
59	0xbf8568d5	-1.0422617
60	0x3f5b6043	0.8569376
61	0xbfa99b6a	-1.3250554
62	0x3e5e4197	0.21704708
63	0x3f414d83	0.755089

hid_bias f4 [16]
0	0x3fab5679	1.3385764
1	0x3fec35f7	1.8453969
2	0x3fc6a852	1.5520117
3	0x40196e62	2.3973622
4	0x3ec86741	0.39141276
5	0xbf6c6618	-0.9234328
6	0xbdab7a10	-0.08372891
7	0xbec43172	-0.38318974
8	0x3f44655a	0.7671715
9	0x3ec7cbdd	0.39022723
10	0x3ddc34e0	0.107522726
11	0x3e92ba4f	0.28657767
12	0x3fdc636a	1.7217839
13	0x4023406d	2.5508072
14	0x3f399793	0.7249691
15	0x3fc71744	1.5553975

V f4 [4, 7]
0	0xc0e1950a	-7.0494432
1	0x3f9ba58c	1.2159896
2	0x3e1dd49b	0.15413134
3	0xbe9f4aea	-0.31111842
4	0x3f202537	0.62556785
5	0x3f8bd60d	1.0924698
6	0xc086a13d	-4.2071824
7	0xbfce6b9f	-1.6126593
8	0x403410d3	2.8135269
9	0xc0230106	-2.5469375
10	0xc037efa3	-2.8740013
11	0x401c3588	2.4407673
12	0xbf1cf884	-0.61316705
13	0xc02f2bfc	-2.7370596
14	0xc0a31318	-5.096081
15	0xbee9d3eb	-0.45669493
16	0x400a21fa	2.1583238
17	0x3fe60c7d	1.7972561
18	0xbeefcc96	-0.46835774
19	0xc02ade5d	-2.669822
20	0x409722f5	4.723017
21	0x3fdd4495	1.7286555
22	0x3f272b6c	0.6530063
23	0x40195e9f	2.3964002
24	0x40128236	2.2891974
25	0xc0188370	-2.3830223
26	0xbe601374	-0.21882421
27	0xc099ac97	-4.802318

out_bias f4 [7]
0	0xbfee60ea	-1.8623326
1	0x3f064bec	0.524596
2	0xbe5a43b4	-0.21314889
3	0xbe364eae	-0.17803451
4	0x3edeefb6	0.4354226
5	0xbe9a61da	-0.3015278
6	0xbe2e4643	-0.1701899
