hw1/net/reber_srn2_50.pth (torch, 2564 bytes, 6 tensors)

H0 f4 [2]
-0.40738234 -1.5779696
00000000: 6b94 d0be e8fa c9bf

W f4 [7, 2]
-1.3891652 0.5834599 1.5958052 -1.8929552 6.4779387 1.4824548 1.6101766 0.2625797
-3.1355307 -2.1304502 2.7979202 0.76191723 2.210879e-39 -4.0525742e-38
00000000: 2ad0 b1bf a15d 153f 5843 cc3f 5b4c f2bf
00000010: 464b cf40 14c1 bd3f 441a ce3f d970 863e
00000020: 89ac 48c0 4c59 08c0 2011 3340 020d 433f
00000030: 0813 1800 a4a4 5c81

U f4 [2, 2]
0.64115417 -1.683595 3.6008034 0.0004507146
00000000: ae22 243f 0a80 d7bf 9073 6640 e44d ec39

hid_bias f4 [2]
0.2560527 -0.43520933
00000000: 5719 833e c2d3 debe

V f4 [2, 7]
0.9704723 -3.821014 3.8469143 4.422881 -3.2870607 -1.0370414 13.302332 -0.4055536
0.23222671 -3.1599054 -2.197416 2.8405316 -0.20671993 7.0979457
00000000: df70 783f 7e8b 74c0 d833 7640 3e88 8d40
00000010: 345f 52c0 c6bd 84bf 5ad6 5441 b9a4 cfbe
00000020: d7cc 6d3e e43b 4ac0 77a2 0cc0 45cb 3540
00000030: 64ae 53be 5f22 e340

out_bias f4 [7]
-5.3480005 -0.036716715 0.082157254 0.19519119 -0.9469586 2.0675664 -7.3202276
00000000: d222 abc0 4464 16bd 1042 a83d 33e0 473e
00000010: e16b 72bf 0253 0440 4e3f eac0
