hw1/net/reber_srn2_20.pth (torch, 2564 bytes, 6 tensors)

H0 f4 [2]
000000 eb 3e 8d be 56 fc e4 bf
       -0.27587065 -1.7889507

W f4 [7, 2]
000000 74 08 9c bf d0 dc ec 3e 6b 44 18 3f 46 24 c1 bf
       -1.219008 0.46262217 0.594794 -1.5089195
000010 05 c1 bc 40 ac 0a 89 3f c7 e9 c0 3f 37 4b ee be
       5.898562 1.0706382 1.5071343 -0.4654176
000020 88 d7 1b c0 ad 59 f6 bf 1b ff d9 3e fe b3 2b 40
       -2.43503 -1.9246117 0.42577443 2.6828609
000030 08 13 18 00 a4 a4 5c 81
       2.210879e-39 -4.0525742e-38

U f4 [2, 2]
000000 ff 4e 67 3f ab 56 c2 bf 12 99 68 40 f4 84 bf be
       0.90354913 -1.5182699 3.6343427 -0.37406123

hid_bias f4 [2]
000000 1d 48 80 3d 86 9a c4 be
       0.062637545 -0.38399142

V f4 [2, 7]
000000 86 64 7c 3f 82 59 26 c0 9a a2 38 40 5c 6f 5f 40
       0.98590887 -2.5992131 2.8849244 3.4911718
000010 61 c3 13 c0 13 fe 0c c0 72 49 d1 40 b8 a9 45 3f
       -2.3088 -2.2030075 6.5402155 0.77212095
000020 a0 f8 86 be f7 4a 1b c0 46 a8 dc bf 48 91 0e 40
       -0.2636156 -2.4264505 -1.7238853 2.2276173
000030 e4 f4 c4 bd a3 0b e5 40
       -0.09617022 7.1576705

out_bias f4 [7]
000000 e5 2f a4 c0 09 71 12 3f c4 88 bc 3c dd da fd 3c
       -5.1308465 0.5720373 0.023014434 0.030988151
000010 8e bc 23 bf 77 87 8d 3f 58 08 08 c0
       -0.63959587 1.1056966 -2.1255093
