hw1/net/reber_srn2_40.pth (torch, 2564 bytes, 6 tensors)

H0 f4 [2]
0	0xbed91289	-0.42396954
1	0xbfe24a45	-1.7678915

W f4 [7, 2]
0	0xbf7bd804	-0.9837649
1	0x3f1a736b	0.60332364
2	0x3f84fae7	1.0389069
3	0xbff20933	-1.8909057
4	0x40cb8078	6.359432
5	0x3fc1b5e5	1.5133635
6	0x3fc1e5a2	1.5148203
7	0x3db52785	0.088454284
8	0xc03c28a2	-2.93998
9	0xbff978b6	-1.9489963
10	0x401a89c6	2.414659
11	0x3f7ddb00	0.9916229
12	0x00181308	2.210879e-39
13	0x815ca4a4	-4.0525742e-38

U f4 [2, 2]
0	0x3f76beac	0.9638469
1	0xbfdd6d56	-1.7298992
2	0x4082f19a	4.0919924
3	0xbdb5ca6a	-0.08876498

hid_bias f4 [2]
0	0x3d8198eb	0.06327995
1	0xbeba1fc6	-0.36352366

V f4 [2, 7]
0	0x3f827e86	1.0194862
1	0xc0501511	-3.2512858
2	0x4064dfce	3.57616
3	0x40877ead	4.2342134
4	0xc0306ce8	-2.756647
5	0xc000fd52	-2.0154614
6	0x412c138b	10.754771
7	0x3e7e0c33	0.24809341
8	0xbdf42b3b	-0.11922308
9	0xc037404e	-2.8632998
10	0xbfe81b74	-1.8133378
11	0x401ecd09	2.4812644
12	0xbe06ac8d	-0.1315176
13	0x410d552f	8.833297

out_bias f4 [7]
0	0xc0a3f8ad	-5.124106
1	0x3ed310c1	0.4122372
2	0x3ca677d7	0.020320816
3	0x3dfb3897	0.12266653
4	0xbf5b199b	-0.85585946
5	0x3fbc0edf	1.4692038
6	0xc0ac5119	-5.3848996
