hw1/net/reber_lstm4_20.pth (torch, 3147 bytes, 5 tensors)

W f4 [7, 16]
00000000: aad7 853f 42b7 2640 3125 0e3f 10fa 74be
00000010: b100 d8bf 2d05 f0bf c2d3 f5bf 8c27 b8be
00000020: ede2 fdbe a761 3640 4fe5 02c0 252b 2abf
00000030: aca9 493f 8de1 0940 bae8 e1bf 9ffd b93f
00000040: 2cad 3e3f 41a4 e43f f440 d83f b32a 883f
00000050: 5120 b7be a804 21c0 eaa7 d83f 8a9a 673e
00000060: dcd4 57be 5971 11bf 1318 75bd e7c8 e53f
00000070: 76a7 8f3f b8a5 363f 0b54 f53f dbc8 593f
00000080: b0b6 79bf 7b15 fb3f 1794 9c3f d810 c43f
00000090: 056c 88bf d404 893f 7274 a5bf b034 90bf
000000a0: 4e9e 23be b13d 24c0 5aa6 3c40 a131 2c3f
000000b0: f5db 90c0 c0d0 1040 37ba 893e 0215 2c40
000000c0: 5ce2 f53f effb 0dc0 66d4 87bf 9eda f33f
000000d0: fe0e 2bbf 6945 d93f be77 91bf 800d 573f
000000e0: 3109 d73e 4f10 36bf e25b 11c0 f567 bb3f
000000f0: 868d 1a40 39e3 3940 aa92 b3bf 87e8 7f40
00000100: f5ae 5640 d8eb af3f c65c ba3f bdc8 873f
00000110: 6198 653f 7e4e 953e 1c0d de3e 756a cabe
00000120: 4665 113f 86be f73e a426 d4bf 3a35 463f
00000130: 823f 1d40 483e 3a3d b630 0c40 23b0 9e3f
00000140: 62cf ea3e 3acb 9d3f 6cfc 963f 26e1 c93f
00000150: ef03 ffbf afcc a93e 907b bcbe 6f38 00c0
00000160: d0dc 3abf 96df 98bf 5ff3 febe e23d 46c0
00000170: 669a 88bf af1e 183f a76f bc3f f6eb f33f
00000180: 2930 ed3f cd10 0c40 4295 a43f f467 b03f
00000190: 4edc c1be e67a 47c0 2ab3 6140 c626 f73f
000001a0: 5472 df3f 3d1a 3640 d5d3 003f 2014 3ac0
000001b0: 6a60 6d40 ac58 8d3f a6ae bc3f 28f1 26bf
1.045644 2.6049352 0.555255 -0.23923516 -1.6875211 -1.875158 -1.9205248 -0.35967672
-0.49587193 2.8497102 -2.045246 -0.66472083 0.78774524 2.1543915 -1.7649148 1.4530524
0.7448299 1.7862626 1.6894822 1.0638031 -0.35766843 -2.5159092 1.6926243 0.22617546
-0.21077293 -0.5681358 -0.059837412 1.7951936 1.122298 0.71346617 1.9166273 0.85072106
-0.97544384 1.961593 1.2232693 1.531764 -1.0657965 1.0704598 -1.2926161 -1.1266079
-0.15978357 -2.5662653 2.9476533 0.6726323 -4.52685 2.262741 0.26899883 2.6887822
1.9209704 -2.2185018 -1.0611694 1.9051092 -0.6681975 1.6974307 -1.1364667 0.84004974
0.419992 -0.71118635 -2.271233 1.46411 2.414888 2.9044936 -1.4029133 3.9985673
3.3544285 1.3743849 1.4559562 1.0608135 0.89685637 0.29161447 0.43369377 -0.39534345
0.56795156 0.48387545 -1.6574292 0.7742497 2.4570012 0.045469552 2.190473 1.2397503
0.45861346 1.2327645 1.1795783 1.5771835 -1.9923075 0.33163974 -0.3681302 -2.0034444
-0.72993183 -1.1943233 -0.49795052 -3.097527 -1.0672119 0.5942182 1.4721574 1.9056385
1.8530322 2.1885254 1.285805 1.3781724 -0.37863392 -3.1168761 3.5265603 1.9308708
1.7456765 2.8453515 0.5032323 -2.9074783 3.7090096 1.1042686 1.4740798 -0.65211725

U f4 [4, 16]
00000000: 0597 d23f e765 0440 e373 8240 be16 1240
00000010: b681 143f 3496 0cbd 2df4 c8be 7049 cebe
00000020: f831 aa3f b22a 93be 87e2 713f 642f 3bbf
00000030: b492 a2bf 14e1 ba3f 9bad ab40 fb8d 1140
00000040: d1d0 f5bf 0910 273e 4f51 ba3f 308b 68bf
00000050: 6ef6 c6bf fc41 51be 3303 3240 5ed1 3c3f
00000060: 9adf f5bf a3ad 5ebf a8f6 38bf 182d 20be
00000070: e014 17be 26b8 cbbf a1b8 0c40 fdef 2d3f
00000080: 4284 c9bf 5ee2 5e3f 34b8 ce3f 1454 38be
00000090: 9a14 34bf c9f2 88bf 8ff3 963f 3a92 2440
000000a0: bd9c e9bd 722c 9d3e f6ec 193f 72f0 0abf
000000b0: 13e1 9ebf 6a6a bc3f 2f75 aa3e e77f 71bf
000000c0: f434 473f f1b6 80bf e371 42bf 6e32 133e
000000d0: d89f 3540 3e60 043f c512 8d3f cf11 83bf
000000e0: dd3b 2040 42d3 c63f 9d9b 21c0 f3ae 93bf
000000f0: 3ec6 313f 2cd9 e6bf e441 533f 47d8 533f
1.6452338 2.0687196 4.0766463 2.282638 0.58010423 -0.034322932 -0.3924879 -0.40290403
1.3296499 -0.2874351 0.9448628 -0.7311919 -1.270102 1.4599938 5.364942 2.2742908
-1.9204351 0.1631471 1.4556063 -0.90837383 -1.5543954 -0.20435327 2.7814453 0.7375697
-1.9208863 -0.869837 -0.7225137 -0.15642202 -0.14754057 -1.5915573 2.1987689 0.6794432
-1.5743487 0.8706416 1.6149964 -0.18000823 -0.70343935 -1.0699092 1.1793078 2.571425
-0.114068486 0.30697972 0.601272 -0.5427314 -1.2412437 1.4719975 0.3329253 -0.9433579
0.77815175 -1.0055829 -0.7595503 0.14374706 2.837881 0.51709354 1.1021353 -1.023981
2.5036538 1.5533221 -2.525123 -1.1537765 0.6944312 -1.8035026 0.82522416 0.8275189

hid_bias f4 [16]
00000000: ea96 a43f e41c ef3f 4603 d43f 7bba 1d40
00000010: 8a1c 263e 7048 5dbf 1f56 413d e956 5dbe
00000020: bf65 3f3f 3535 853e 672f c63c de74 c23e
00000030: 2ac9 cd3f 8114 0e40 a0c2 c33e e709 bd3f
1.2858555 1.8680692 1.6563499 2.4645069 0.16221824 -0.86438656 0.047201272 -0.21615185
0.7476463 0.26017156 0.024192525 0.37979788 1.6077015 2.2200015 0.38234425 1.4768647

V f4 [4, 7]
00000000: 1f80 3cc1 c2b7 9e3f 6a14 083e cd88 a2be
00000010: b354 283f 17fa 933f 70f4 b1c0 0631 9dbf
00000020: 9656 5840 83a9 43c0 dfa2 58c0 9fe2 1940
00000030: a689 51bf f636 80c0 d30c 00c1 09be 05bf
00000040: e3ac 4940 b67a 4740 44fa bcbe a39a 4ec0
00000050: bd8c ff40 bc18 a23f bf77 5d3f ee4a 3440
00000060: 1870 2640 b44d 52c0 083e 19bd 762e 0dc1
-11.78128 1.2399828 0.13289037 -0.31744996 0.6575424 1.1560696 -5.5610886 -1.2280586
3.3802848 -3.0572212 -3.3849409 2.4044569 -0.8185066 -4.006709 -8.003131 -0.52243096
3.1511772 3.1168647 -0.36909688 -3.2281883 7.98593 1.2663798 0.86510843 2.8170733
2.6005917 -3.2859926 -0.037412673 -8.823843

out_bias f4 [7]
00000000: 2aac 49c0 ab7f 253f 82ba 4ebe 88c2 01be
00000010: 38f7 f63e 025a 17bf 7710 97bf
-3.151133 0.6464793 -0.20188335 -0.12671864 0.48235488 -0.59121716 -1.18019
