hw1/net/reber_lstm4_40.pth (torch, 3147 bytes, 5 tensors)

W f4 [7, 16]
000000 86 23 71 3f b6 d2 32 40 8e 1e 1b 3f dd 49 94 be
       0.9419483 2.7941108 0.605935 -0.28962603
000010 55 80 b9 bf 7c 99 13 c0 4e 67 06 c0 7b f5 f6 be
       -1.4492289 -2.306243 -2.1000552 -0.48234162
000020 0d b3 01 bf 0d 85 31 40 b6 82 04 c0 b8 13 38 bf
       -0.50663835 2.7737458 -2.070478 -0.7190509
000030 05 65 36 3f 0c 0a fe 3f 4f 41 08 c0 23 b4 cc 3f
       0.71247894 1.9846816 -2.1289861 1.5992473
000040 e8 69 77 3f 13 1b bc 3f 48 96 55 3f 8f 21 9f 3f
       0.96645975 1.4695762 0.83432436 1.2432116
000050 00 0e 13 bf fa d6 12 c0 30 d5 e8 3f ca fd 4d 3e
       -0.5744324 -2.2943711 1.819006 0.20116344
000060 50 e7 96 be fa 85 0a bf 95 82 19 3d 45 ef 0e 40
       -0.29473352 -0.5411068 0.03747805 2.2333539
000070 10 a4 81 3f 39 5c c6 be 7d 4d b8 3f 98 8e 80 3f
       1.0128193 -0.38742235 1.4398648 1.0043516
000080 06 a4 cf bf 8a cb f2 3f 89 a1 ba 3f d2 b8 88 3f
       -1.6221931 1.8968365 1.4580547 1.0681403
000090 a9 7a e6 be e8 b7 3d 3f d3 89 4f bf 43 a9 4c bf
       -0.45015457 0.74108744 -0.8106968 -0.7994577
0000a0 6f 6e 06 be a5 24 27 c0 2b 59 5d 40 b8 33 2d 3f
       -0.13128065 -2.6116116 3.4585674 0.6765704
0000b0 18 ca 99 c0 41 2c f5 3f be 8d 2c 3f 6b 26 12 40
       -4.8059196 1.915413 0.6740378 2.2835948
0000c0 d3 90 0a 40 a2 ec 13 c0 b3 69 4b bf 91 bc b0 3f
       2.1650894 -2.311318 -0.7945816 1.3807546
0000d0 95 de 16 c0 e7 35 fb 3f d7 00 90 bf 06 8c 77 3f
       -2.3573353 1.9625825 -1.1250256 0.96698034
0000e0 af 60 cd 3e 60 b5 22 bf 04 88 2e c0 87 0d c1 3f
       0.40112826 -0.63558006 -2.7270517 1.5082253
0000f0 96 af 25 40 a0 eb 1c 40 90 1b e1 bf 43 d8 7b 40
       2.588842 2.4518814 -1.7586536 3.9350746
000100 b3 8d 41 40 77 37 6f 3f 57 d2 5f 3f 20 29 9e 3f
       3.0242736 0.9344401 0.8743033 1.23563
000110 63 82 b2 3f d1 13 e6 3e 1e 95 39 3f f0 44 3d be
       1.3946041 0.44936994 0.7249316 -0.18483329
000120 4e 4a 27 3f e2 00 fb 3e c1 d0 ef bf f7 4b 45 3f
       0.65347755 0.4902411 -1.8735582 0.7706904
000130 42 68 29 40 39 e9 38 bf cf f7 01 40 e8 7c ba 3f
       2.6469884 -0.7223087 2.03075 1.4569368
000140 f7 25 56 bf b8 d5 81 3f 65 1c 91 3f 1a 3b d6 3f
       -0.8365168 1.0143347 1.133679 1.6736786
000150 ab c3 0b c0 5a 69 1d 3e 72 0c 08 be 0b 65 e9 bf
       -2.1838176 0.1537222 -0.13285998 -1.8233961
000160 df a7 58 bf 64 b8 ad bf 9b 02 b7 be 53 ef 45 c0
       -0.8463115 -1.3571897 -0.35744175 -3.0927322
000170 e0 dd 68 bf e1 b2 67 3f fc cb aa 3f fa 20 02 40
       -0.90963554 0.9050732 1.3343501 2.0332627
000180 3b 1e 01 40 3d bd 08 40 e7 10 41 3f 1d 08 94 3f
       2.0174701 2.1365502 0.75416416 1.1564976
000190 b1 81 d0 be 45 74 30 c0 f7 0b 4c 40 1d f7 b3 3f
       -0.40723947 -2.7570965 3.1882303 1.4059788
0001a0 ed d8 09 40 1c 6b 2c 40 b1 81 d2 3e 76 7d 3c c0
       2.153865 2.6940374 0.41114572 -2.9451575
0001b0 08 6a 49 40 5b 2d 33 3f e3 8d b6 3f 9b 9c 2f bf
       3.1470966 0.6999108 1.426205 -0.68598336

U f4 [4, 16]
000000 3b 99 f0 3f 70 95 1f 40 de 77 89 40 41 81 03 40
       1.8796762 2.493496 4.295882 2.054764
000010 01 ba 06 3f ad fd 1e be 78 16 b0 be 67 7f 96 be
       0.5262757 -0.15526457 -0.34392142 -0.29394075
000020 59 2f bb 3f 1e 63 a5 be 87 9c 8b 3f 21 3e 3c bf
       1.4623824 -0.32302183 1.0907143 -0.735323
000030 ed 75 80 bf 09 c4 c4 3f 02 ce d1 40 da d0 52 40
       -1.0035988 1.5372325 6.5563974 3.2939973
000040 4a 5e c9 bf 49 bd 22 3e 98 65 76 3f 7d 98 5b bf
       -1.57319 0.15892519 0.9624877 -0.85779554
000050 8c 02 aa bf 34 55 1b be 3b 5e 3e 40 7b 73 0c 3f
       -1.3282027 -0.15169221 2.9745014 0.5486371
000060 27 16 fa bf 64 c9 4e bf 70 40 36 bf 38 77 b4 bd
       -1.953801 -0.8077605 -0.71192074 -0.08811802
000070 cf 8f 8a be 64 ab 00 c0 f1 f8 11 40 e5 df 22 3f
       -0.27062842 -2.0104609 2.2808192 0.63622886
000080 e6 8f e4 bf 4b 84 b1 3e fe 04 cf 3f a2 14 1d be
       -1.7856414 0.34671244 1.6173398 -0.15339902
000090 2e 47 fd be 84 d4 8d bf 6a ff 8b 3f b6 ce 4b 40
       -0.49468368 -1.108048 1.0937321 3.1844916
0000a0 e5 ca 6b be e7 7d 9e 3e e4 70 2f 3f 11 28 12 bf
       -0.23026617 0.3095543 0.6853163 -0.57092386
0000b0 01 3a c4 bf 1f 12 c6 3f c8 0f e1 3e f7 66 75 bf
       -1.5330201 1.547428 0.43957353 -0.95860237
0000c0 28 0e 30 3e 21 83 83 bf 7a f9 c6 be 27 84 23 3e
       0.171929 -1.0274392 -0.3886221 0.15968381
0000d0 36 42 2d 40 dc 32 00 3f a6 8a a6 3f 6d 21 95 bf
       2.7071662 0.50077605 1.3011062 -1.1650826
0000e0 6f ec 26 40 8c 47 cf 3f 86 3c 2d c0 bf 5b 9b bf
       2.6081808 1.6193709 -2.706819 -1.2137374
0000f0 fa a4 2e 3e bf 2e f8 bf 07 57 b9 3f 25 28 46 3f
       0.17055121 -1.9389266 1.4479684 0.77405006

hid_bias f4 [16]
000000 2a d1 b7 3f 93 a9 e7 3f ea 05 ee 3f c3 3e 26 40
       1.4360707 1.8098625 1.8595555 2.5975807
000010 4a bb cc 3d 62 ed 41 bf fb 63 93 3e 1a 08 a0 bd
       0.0999666 -0.7575284 0.28787217 -0.07814045
000020 6f 07 3e 3f 8a 4a 5e 3e f7 1a 5a bb 2f df be 3e
       0.7423009 0.21708122 -0.0033280232 0.3727965
000030 88 c7 d7 3f b6 c7 01 40 08 af 60 3e b4 d3 c3 3f
       1.6857767 2.0278144 0.21941769 1.5298982

V f4 [4, 7]
000000 ec 2e 5f c1 27 cb 9f 3f 6f dd 02 3d 76 22 94 be
       -13.948956 1.2483872 0.031949457 -0.28932542
000010 31 89 33 3f 05 04 99 3f 5d 1f 61 c0 5d 56 db be
       0.7013121 1.1954352 -3.5175393 -0.42839327
000020 e6 f2 76 40 bf 6c 61 c0 02 db 70 c0 8b d8 18 40
       3.8585753 -3.5222623 -3.7633672 2.3882167
000030 db d4 7c bf ce ee ae c0 1f 71 fd c0 9f 1a 1e bf
       -0.9876229 -5.466651 -7.9200587 -0.6175937
000040 1f d7 7f 40 e0 8d 7e 40 39 fd 27 be 2c 9d 6e c0
       3.997505 3.9774094 -0.1640519 -3.728343
000050 f4 90 1a 41 34 55 c4 3e a5 21 8f 3f 6b ef 47 40
       9.660389 0.38346255 1.1182142 3.123988
000060 9c db 33 40 07 51 84 c0 be ec b2 3d 4d e3 1f c1
       2.810279 -4.134891 0.08736561 -9.992993

out_bias f4 [7]
000000 b6 2c 4a c0 b7 80 3a 3f 6e 9d 4b be ff 03 f4 bd
       -3.158979 0.72852653 -0.19884273 -0.11914825
000010 4f 22 0e 3f 7c 4b 55 bf dd ac 39 c0
       0.555211 -0.83318305 -2.9011757
