hw1/net/reber_srn2_30.pth (torch, 2564 bytes, 6 tensors)

H0 f4 [2]
00000000: e2d5 b3be 9f47 e7bf
-0.35124117 -1.8068732

W f4 [7, 2]
00000000: 47ab 4ebf dac1 083f edd4 6e3f b9f4 ddbf
00000010: 7f4a c140 bbbf a73f bdca ca3f 6e29 f8be
00000020: 5eb6 2dc0 276e 04c0 e972 ab3f 6dca 1e40
00000030: 0813 1800 a4a4 5c81
-0.807301 0.53420794 0.9329365 -1.7340308 6.0403438 1.3105386 1.5843121 -0.48469108
-2.7142558 -2.0692232 1.3394443 2.481105 2.210879e-39 -4.0525742e-38

U f4 [2, 2]
00000000: 95c1 8d3f e40d d7bf ffa5 8440 f887 6bbe
1.1074702 -1.6801114 4.145263 -0.23001087

hid_bias f4 [2]
00000000: c4e9 f53c 17d7 bbbe
0.030018695 -0.36687538

V f4 [2, 7]
00000000: 32da 873f da77 38c0 4254 5240 d108 7c40
00000010: 3693 1bc0 d91e 16c0 8bca 0a41 2811 413f
00000020: b2d2 54be 11d0 2ac0 6d2f dcbf 031c 1840
00000030: a003 23be 4d57 1741
1.0613463 -2.8823152 3.2863927 3.938038 -2.43086 -2.3456328 8.674449 0.75416803
-0.20783499 -2.6689494 -1.7201973 2.3767097 -0.15919352 9.458814

out_bias f4 [7]
00000000: 2ac2 9bc0 6561 0c3f 47f8 463c 8dc1 683d
00000010: db9f 2fbf c9c1 973f 8a3e 67c0
-4.8674517 0.5483611 0.012144155 0.05682521 -0.68603295 1.1856014 -3.613192
