hw1/net/reber_lstm4_50.pth (torch, 3147 bytes, 5 tensors)

W f4 [7, 16]
00000000: 1a93 643f 5b2d 3640 a597 073f a6bb 84be
00000010: 3863 b8bf a690 20c0 e959 02c0 1757 19bf
00000020: 471c 03bf d3b9 2c40 1ce9 15c0 57a9 3ebf
00000030: b74d 323f 4102 f13f 6a78 0ac0 0db8 ea3f
00000040: e11a 8b3f 5940 d43f 196a f53e c820 b13f
00000050: cb5d 20bf a0c6 d7bf bb01 f93f adcd 803e
00000060: 4adc 87be 514a 08bf 0a20 683d e152 1640
00000070: 4ce1 743f 7e9c 74bf b424 9f3f eb2d 983f
00000080: 3a9e f5bf 6e0d fc3f 49f5 bc3f 7e77 8e3f
00000090: 00e7 b53d 477e 2b3f 67ef 46be b82d 47bf
000000a0: 2803 8abe 3a05 2bc0 4c88 5d40 9789 2d3f
000000b0: bbb6 9dc0 882f 0240 1a29 333f 2a3a 1640
000000c0: d892 1a40 59d9 18c0 60f5 dabe 752d a73f
000000d0: 0f92 3dc0 b6b0 0440 3402 85bf dc21 833f
000000e0: 1c0a f73e 64ba 25bf 6d8d 33c0 e363 cd3f
000000f0: 6f55 1940 4a52 1c40 5f3e edbf ee8a 7140
00000100: 5513 3440 7b75 3d3f a790 563f 80a0 ad3f
00000110: 1fd3 d53f d9a2 ec3e f322 263f b171 34be
00000120: a830 363f fb7f 013f 708d ebbf fb11 2a3f
00000130: 93bb 3a40 4c0f 87bf ce1c 0040 1d6c c83f
00000140: 7573 04c0 3512 503f eab0 9e3f 075f da3f
00000150: 6fbf 08c0 acaf 9e3d 7a35 b0bd 86b0 dbbf
00000160: 6e21 63bf fc7c acbf 05e4 7cbe 2b71 4dc0
00000170: 1d5c 35bf 28f1 973f 2196 bf3f 74a4 f23f
00000180: eb24 1540 75fe 1840 0298 3d3f 9275 8c3f
00000190: bfb7 fbbe 9f37 2fc0 7690 4440 e088 a83f
000001a0: 2cf5 1d40 595b 3240 c894 923e 905e 40c0
000001b0: 285c 3d40 2929 3f3f cd31 b53f 8c55 31bf
0.8928696 2.8465183 0.52965766 -0.25924414 -1.4405279 -2.5088286 -2.0367377 -0.59898514
-0.5121502 2.6988418 -2.3423529 -0.7447714 0.69649833 1.8828813 -2.1635995 1.8337418
1.0867578 1.6582137 0.4793251 1.3838129 -0.62643117 -1.685749 1.9453653 0.25156918
-0.26535255 -0.532384 0.05667118 2.3488085 0.95656276 -0.9555129 1.2433076 1.1889013
-1.9188912 1.9691598 1.4762355 1.1130216 0.088819504 0.6698956 -0.19427262 -0.77804136
-0.26955533 -2.672194 3.461444 0.6778807 -4.928556 2.034151 0.6998459 2.3473
2.4152126 -2.3882658 -0.4276533 1.3060747 -2.9620397 2.0732856 -1.0391297 1.0244708
0.482499 -0.64737535 -2.805507 1.6046108 2.3958395 2.4425225 -1.8534659 3.7741046
2.81368 0.74007386 0.8381447 1.3564606 1.6705054 0.46217993 0.6489708 -0.17621495
0.71167994 0.5058591 -1.8402538 0.66433686 2.9176986 -1.0551543 2.001758 1.5657994
-2.069547 0.8127778 1.239774 1.706025 -2.1366842 0.077483505 -0.0860395 -1.7163246
-0.88722885 -1.3475642 -0.24696358 -3.2100322 -0.7084368 1.187047 1.4967691 1.8956437
2.3303783 2.3905308 0.7406007 1.097338 -0.49163625 -2.7377698 3.0713172 1.3166771
2.468089 2.7868254 0.28629136 -3.0057716 2.9587498 0.7467218 1.4155823 -0.6927116

U f4 [4, 16]
00000000: cd3d 0840 9d56 2440 cefd 9440 696c f13f
00000010: f599 163f ffc5 59be 4327 c5be 35dd 54be
00000020: 31e4 c63f a482 c5be ab8f 973f 80e0 3fbf
00000030: 5c4a 48bf 992a ce3f f92d dd40 8186 8b40
00000040: 8e2f abbf 416e 263e 8b09 8a3f f952 5fbf
00000050: 45ed 9abf 704a f5bd 7587 4e40 0f51 d53e
00000060: bc3b 02c0 d3a9 54bf f9d6 42bf 5239 e7bd
00000070: a059 8cbe a0a9 03c0 1cfa 1740 1ee0 163f
00000080: 5f7c cfbf 7c5b 963e b739 d33f 6344 2fbe
00000090: 88ba dfbe f746 a5bf afa7 803f 3fee 6940
000000a0: 959a 85be baaa 8b3e 1097 2b3f 7e01 0ebf
000000b0: ef20 e5bf b6b7 ce3f 0949 d23e 670d 80bf
000000c0: 9201 14bf 854d 8cbf 3b0a c6be e4b7 783e
000000d0: 2ad9 2240 3b3b 293f 0766 d23f ba84 9ebf
000000e0: bb01 2840 57a8 d53f f90b 38c0 6a92 9ebf
000000f0: 1bc4 0cbe d1c3 04c0 5882 bc3f 41d2 443f
2.128772 2.5677865 4.655982 1.8861209 0.5882867 -0.21266936 -0.38506517 -0.20787509
1.5538388 -0.38576233 1.1840719 -0.74951935 -0.78238463 1.610675 6.911862 4.360169
-1.3373888 0.16252996 1.0784162 -0.8723598 -1.2103659 -0.119770885 3.2270176 0.41663405
-2.034896 -0.8307163 -0.7610927 -0.1129023 -0.27412128 -2.057228 2.3746405 0.58935726
-1.620983 0.29366672 1.6501988 -0.17115931 -0.43697 -1.2912282 1.0051173 3.6551664
-0.260945 0.27278692 0.6702738 -0.55471027 -1.7900676 1.6149814 0.41071346 -1.000409
-0.57814896 -1.0961157 -0.3867968 0.24288899 2.5445046 0.66106004 1.6437386 -1.2384255
2.6251056 1.6691998 -2.8757308 -1.2388432 -0.13746683 -2.0744517 1.4727278 0.7688332

hid_bias f4 [16]
00000000: ab4c a73f 126e df3f 2657 f73f baf6 2d40
00000010: 31bb 133e 3235 33bf 71e5 d63e 11f3 87bd
00000020: d47f 3f3f e7e0 683e 0434 e03c dca3 b73e
00000030: 161d eb3f b163 f33f fc47 4f3e 22ae cc3f
1.3070272 1.7455466 1.932347 2.718184 0.14426877 -0.70003045 0.41971925 -0.06638158
0.74804425 0.22742043 0.027368553 0.35867202 1.8368251 1.9014798 0.20242304 1.5990641

V f4 [4, 7]
00000000: 3d7b 6bc1 6cb2 a33f 7931 553d 9b00 a5be
00000010: 65a5 2a3f 984e 9e3f cafd 65c0 4e74 f4be
00000020: 651e 8240 d034 6ac0 3f72 7ac0 bfba 1540
00000030: 024b 83bf fec5 d1c0 1f76 04c1 e440 29bf
00000040: d785 8740 af64 8640 2d3e b23c 69c5 7cc0
00000050: e846 1641 2003 80be 58b8 a03f 3089 4f40
00000060: f056 3840 e21f 8dc0 caef 843d a5df 1ec1
-14.717587 1.2788825 0.052049134 -0.32227024 0.6665862 1.2367735 -3.593615 -0.47744983
4.0662103 -3.6594734 -3.913223 2.339523 -1.0257266 -6.555419 -8.278838 -0.6611464
4.235088 4.1997905 0.021758163 -3.949549 9.392311 -0.25002384 1.2556257 3.2427483
2.8803062 -4.410142 0.06491049 -9.929601

out_bias f4 [7]
00000000: 3fa3 68c0 47a1 413f 33a1 4abe 3270 d8bd
00000010: 9b30 0c3f 818e 5cbf abb7 52c0
-3.6349638 0.75636715 -0.19788055 -0.105682746 0.54761666 -0.86154944 -3.2924602
