hw1/net/reber_srn2_0.pth (torch, 2554 bytes, 6 tensors)

H0 f4 [2]
-0.00030219957 0.000641458
00000000: 8a70 9eb9 8527 283a

W f4 [7, 2]
-0.002644966 0.002679447 -0.0012990762 -0.00110482 -1.1872471e-06 0.0010886665 -0.0015603795 0.0007778912
0.0013174759 -0.0019920096 0.00028509152 0.0007641776 0.00061540643 0.0001337722
00000000: 2a57 2dbb a999 2f3b c445 aaba 9ccf 90ba
00000010: 8059 9fb5 96b1 8e3a a685 ccba 65eb 4b3a
00000020: 28af ac3a 608c 02bb 5678 9539 1753 483a
00000030: 3a53 213a 3445 0c39

U f4 [2, 2]
-0.00088604714 -0.0012112181 0.0016332401 -0.00079362735
00000000: 9e45 68ba bcc1 9eba 7212 d63a 6e0b 50ba

hid_bias f4 [2]
0.00040702522 0.0024792724
00000000: 0066 d539 4a7b 223b

V f4 [2, 7]
0.00018140808 0.0021923496 -6.579934e-05 0.00075901276 -0.0019076348 -0.0014397356 0.00095397606 -0.000684545
-0.0013989633 -0.00043723633 -0.0019061735 0.001499892 0.001462234 0.000595793
00000000: 5c38 3e39 86ad 0f3b c0fd 89b8 7cf8 463a
00000010: 9a09 faba 83b5 bcba 4014 7a3a 0a73 33ba
00000020: 6b5d b7ba de3c e5b9 92d8 f9ba 0698 c43a
00000030: 6ea8 bf3a fe2e 1c3a

out_bias f4 [7]
-0.0022914982 -0.0013084299 -0.0012016108 -0.0014834505 0.0013183249 0.0005762474 -0.0027044844
00000000: f62c 16bb 9f7f abba 5e7f 9dba 5770 c2ba
00000010: a5cb ac3a 4f0f 173a b83d 31bb
