hw1/net/reber_srn2_10.pth (torch, 2564 bytes, 6 tensors)

H0 f4 [2]
-0.17725159 -1.7309841
00000000: 7181 35be e390 ddbf

W f4 [7, 2]
-1.8912164 0.3723836 0.35430932 -0.9185332 4.4495435 0.6792204 1.3030407 -1.2127916
-1.9231807 -1.3300687 -0.4881277 3.028998 2.210879e-39 -4.0525742e-38
00000000: 6113 f2bf 10a9 be3e 0868 b53e fe24 6bbf
00000010: a962 8e40 63e1 2d3f 0aca a63f c13c 9bbf
00000020: c92a f6bf b13f aabf e0eb f9be 1adb 4140
00000030: 0813 1800 a4a4 5c81

U f4 [2, 2]
0.71469915 -0.9456463 2.9073143 -0.5900633
00000000: 86f6 363f e015 72bf 7011 3a40 630e 17bf

hid_bias f4 [2]
0.10549167 -0.2883472
00000000: 040c d83d 3fa2 93be

V f4 [2, 7]
0.46229875 -2.088357 2.2855024 2.7033114 -2.153063 -1.7480676 3.6054587 0.4611841
-0.3619275 -1.7896221 -1.3698628 1.722036 -0.12596785 4.3794374
00000000: 6cb2 ec3e a4a7 05c0 ac45 1240 0e03 2d40
00000010: c9cb 09c0 aec0 dfbf d6bf 6640 5320 ec3e
00000020: 904e b9be 5612 e5bf aa57 afbf ad6b dc3f
00000030: b7fd 00be 5a24 8c40

out_bias f4 [7]
-4.0654182 0.5941323 -0.008413983 -0.11225628 -0.55575866 1.0720005 -0.8294685
00000000: e817 82c0 0e19 183f cdda 09bc 9fe6 e5bd
00000010: 3346 0ebf 5037 893f 0c58 54bf
